…
I0819 06:49:37.223523  2123 net.cpp:322] The NetState phase (0) differed from the phase (1) specified by a rule in layer accuracy
I0819 06:49:37.223691  2123 net.cpp:49] Initializing net from parameters: 
name: "VGG16Net"
state {
  phase: TRAIN
}
layer {
  name: "data"
  type: "Data"
  top: "data"
  top: "label"
  include {
    phase: TRAIN
  }
  transform_param {
    mirror: true
    crop_size: 227
    mean_file: "/home/qqxiao/data/trainData/imagenet_mean.binaryproto"
  }
  data_param {
    source: "/home/qqxiao/data/trainData/imagenet_train_leveldb"
    batch_size: 32
    backend: LMDB
  }
}
layer {
  name: "conv1_1"
  type: "Convolution"
  bottom: "data"
  top: "conv1_1"
  param {
    lr_mult: 1
    decay_mult: 1
  }
  param {
    lr_mult: 2
    decay_mult: 0
  }
  convolution_param {
    num_output: 64
    pad: 1
    kernel_size: 3
    stride: 1
    weight_filler {
      type: "xavier"
    }
    bias_filler {
      type: "constant"
      value: 0.2
    }
  }
}
layer {
  name: "relu1_1"
  type: "ReLU"
  bottom: "conv1_1"
  top: "conv1_1"
}
layer {
  name: "conv1_2"
  type: "Convolution"
  bottom: "conv1_1"
  top: "conv1_2"
  param {
    lr_mult: 1
    decay_mult: 1
  }
  param {
    lr_mult: 2
    decay_mult: 0
  }
  convolution_param {
    num_output: 64
    pad: 1
    kernel_size: 3
    stride: 1
    weight_filler {
      type: "xavier"
    }
    bias_filler {
      type: "constant"
      value: 0.2
    }
  }
}
layer {
  name: "relu1_2"
  type: "ReLU"
  bottom: "conv1_2"
  top: "conv1_2"
}
layer {
  name: "pool1"
  type: "Pooling"
  bottom: "conv1_2"
  top: "pool1"
  pooling_param {
    pool: MAX
    kernel_size: 2
    stride: 2
  }
}
layer {
  name: "conv2_1"
  type: "Convolution"
  bottom: "pool1"
  top: "conv2_1"
  param {
    lr_mult: 1
    decay_mult: 1
  }
  param {
    lr_mult: 2
    decay_mult: 0
  }
  convolution_param {
    num_output: 128
    pad: 1
    kernel_size: 3
    stride: 1
    weight_filler {
      type: "xavier"
    }
    bias_filler {
      type: "constant"
      value: 0.2
    }
  }
}
layer {
  name: "relu2_1"
  type: "ReLU"
  bottom: "conv2_1"
  top: "conv2_1"
}
layer {
  name: "conv2_2"
  type: "Convolution"
  bottom: "conv2_1"
  top: "conv2_2"
  param {
    lr_mult: 1
    decay_mult: 1
  }
  param {
    lr_mult: 2
    decay_mult: 0
  }
  convolution_param {
    num_output: 128
    pad: 1
    kernel_size: 3
    stride: 1
    weight_filler {
      type: "xavier"
    }
    bias_filler {
      type: "constant"
      value: 0.2
    }
  }
}
layer {
  name: "relu2_2"
  type: "ReLU"
  bottom: "conv2_2"
  top: "conv2_2"
}
layer {
  name: "pool2"
  type: "Pooling"
  bottom: "conv2_2"
  top: "pool2"
  pooling_param {
    pool: MAX
    kernel_size: 2
    stride: 2
  }
}
layer {
  name: "conv3_1"
  type: "Convolution"
  bottom: "pool2"
  top: "conv3_1"
  param {
    lr_mult: 1
    decay_mult: 1
  }
  param {
    lr_mult: 2
    decay_mult: 0
  }
  convolution_param {
    num_output: 256
    pad: 1
    kernel_size: 3
    stride: 1
    weight_filler {
      type: "xavier"
    }
    bias_filler {
      type: "constant"
      value: 0.2
    }
  }
}
layer {
  name: "relu3_1"
  type: "ReLU"
  bottom: "conv3_1"
  top: "conv3_1"
}
layer {
  name: "conv3_2"
  type: "Convolution"
  bottom: "conv3_1"
  top: "conv3_2"
  param {
    lr_mult: 1
    decay_mult: 1
  }
  param {
    lr_mult: 2
    decay_mult: 0
  }
  convolution_param {
    num_output: 256
    pad: 1
    kernel_size: 3
    stride: 1
    weight_filler {
      type: "xavier"
    }
    bias_filler {
      type: "constant"
      value: 0.2
    }
  }
}
layer {
  name: "relu3_2"
  type: "ReLU"
  bottom: "conv3_2"
  top: "conv3_2"
}
layer {
  name: "conv3_3"
  type: "Convolution"
  bottom: "conv3_2"
  top: "conv3_3"
  param {
    lr_mult: 1
    decay_mult: 1
  }
  param {
    lr_mult: 2
    decay_mult: 0
  }
  convolution_param {
    num_output: 256
    pad: 1
    kernel_size: 3
    stride: 1
    weight_filler {
      type: "xavier"
    }
    bias_filler {
      type: "constant"
      value: 0.2
    }
  }
}
layer {
  name: "relu3_3"
  type: "ReLU"
  bottom: "conv3_3"
  top: "conv3_3"
}
layer {
  name: "pool3"
  type: "Pooling"
  bottom: "conv3_3"
  top: "pool3"
  pooling_param {
    pool: MAX
    kernel_size: 2
    stride: 2
  }
}
layer {
  name: "conv4_1"
  type: "Convolution"
  bottom: "pool3"
  top: "conv4_1"
  param {
    lr_mult: 1
    decay_mult: 1
  }
  param {
    lr_mult: 2
    decay_mult: 0
  }
  convolution_param {
    num_output: 512
    pad: 1
    kernel_size: 3
    stride: 1
    weight_filler {
      type: "xavier"
    }
    bias_filler {
      type: "constant"
      value: 0.2
    }
  }
}
layer {
  name: "relu4_1"
  type: "ReLU"
  bottom: "conv4_1"
  top: "conv4_1"
}
layer {
  name: "conv4_2"
  type: "Convolution"
  bottom: "conv4_1"
  top: "conv4_2"
  param {
    lr_mult: 1
    decay_mult: 1
  }
  param {
    lr_mult: 2
    decay_mult: 0
  }
  convolution_param {
    num_output: 512
    pad: 1
    kernel_size: 3
    stride: 1
    weight_filler {
      type: "xavier"
    }
    bias_filler {
      type: "constant"
      value: 0.2
    }
  }
}
layer {
  name: "relu4_2"
  type: "ReLU"
  bottom: "conv4_2"
  top: "conv4_2"
}
layer {
  name: "conv4_3"
  type: "Convolution"
  bottom: "conv4_2"
  top: "conv4_3"
  param {
    lr_mult: 1
    decay_mult: 1
  }
  param {
    lr_mult: 2
    decay_mult: 0
  }
  convolution_param {
    num_output: 512
    pad: 1
    kernel_size: 3
    stride: 1
    weight_filler {
      type: "xavier"
    }
    bias_filler {
      type: "constant"
      value: 0.2
    }
  }
}
layer {
  name: "relu4_3"
  type: "ReLU"
  bottom: "conv4_3"
  top: "conv4_3"
}
layer {
  name: "pool4"
  type: "Pooling"
  bottom: "conv4_3"
  top: "pool4"
  pooling_param {
    pool: MAX
    kernel_size: 2
    stride: 2
  }
}
layer {
  name: "conv5_1"
  type: "Convolution"
  bottom: "pool4"
  top: "conv5_1"
  param {
    lr_mult: 1
    decay_mult: 1
  }
  param {
    lr_mult: 2
    decay_mult: 0
  }
  convolution_param {
    num_output: 512
    pad: 1
    kernel_size: 3
    stride: 1
    weight_filler {
      type: "xavier"
    }
    bias_filler {
      type: "constant"
      value: 0.2
    }
  }
}
layer {
  name: "relu5_1"
  type: "ReLU"
  bottom: "conv5_1"
  top: "conv5_1"
}
layer {
  name: "conv5_2"
  type: "Convolution"
  bottom: "conv5_1"
  top: "conv5_2"
  param {
    lr_mult: 1
    decay_mult: 1
  }
  param {
    lr_mult: 2
    decay_mult: 0
  }
  convolution_param {
    num_output: 512
    pad: 1
    kernel_size: 3
    stride: 1
    weight_filler {
      type: "xavier"
    }
    bias_filler {
      type: "constant"
      value: 0.2
    }
  }
}
layer {
  name: "relu5_2"
  type: "ReLU"
  bottom: "conv5_2"
  top: "conv5_2"
}
layer {
  name: "conv5_3"
  type: "Convolution"
  bottom: "conv5_2"
  top: "conv5_3"
  param {
    lr_mult: 1
    decay_mult: 1
  }
  param {
    lr_mult: 2
    decay_mult: 0
  }
  convolution_param {
    num_output: 512
    pad: 1
    kernel_size: 3
    stride: 1
    weight_filler {
      type: "xavier"
    }
    bias_filler {
      type: "constant"
      value: 0.2
    }
  }
}
layer {
  name: "relu5_3"
  type: "ReLU"
  bottom: "conv5_3"
  top: "conv5_3"
}
layer {
  name: "pool5"
  type: "Pooling"
  bottom: "conv5_3"
  top: "pool5"
  pooling_param {
    pool: MAX
    kernel_size: 2
    stride: 2
  }
}
layer {
  name: "fc6-my"
  type: "InnerProduct"
  bottom: "pool5"
  top: "fc6-my"
  param {
    lr_mult: 1
    decay_mult: 1
  }
  param {
    lr_mult: 2
    decay_mult: 0
  }
  inner_product_param {
    num_output: 4096
    weight_filler {
      type: "xavier"
    }
    bias_filler {
      type: "constant"
      value: 0
    }
  }
}
layer {
  name: "relu6"
  type: "ReLU"
  bottom: "fc6-my"
  top: "fc6-my"
}
layer {
  name: "drop6"
  type: "Dropout"
  bottom: "fc6-my"
  top: "fc6-my"
  dropout_param {
    dropout_ratio: 0.5
  }
}
layer {
  name: "fc7"
  type: "InnerProduct"
  bottom: "fc6-my"
  top: "fc7"
  param {
    lr_mult: 1
    decay_mult: 1
  }
  param {
    lr_mult: 2
    decay_mult: 0
  }
  inner_product_param {
    num_output: 4096
    weight_filler {
      type: "xavier"
    }
    bias_filler {
      type: "constant"
      value: 0
    }
  }
}
layer {
  name: "relu7"
  type: "ReLU"
  bottom: "fc7"
  top: "fc7"
}
layer {
  name: "drop7"
  type: "Dropout"
  bottom: "fc7"
  top: "fc7"
  dropout_param {
    dropout_ratio: 0.5
  }
}
layer {
  name: "fc8-my100"
  type: "InnerProduct"
  bottom: "fc7"
  top: "fc8-my100"
  param {
    lr_mult: 1
    decay_mult: 1
  }
  param {
    lr_mult: 2
    decay_mult: 0
  }
  inner_product_param {
    num_output: 127
    weight_filler {
      type: "xavier"
    }
    bias_filler {
      type: "constant"
      value: 0
    }
  }
}
layer {
  name: "loss"
  type: "SoftmaxWithLoss"
  bottom: "fc8-my100"
  bottom: "label"
  top: "loss"
}
I0819 06:49:37.223809  2123 layer_factory.hpp:76] Creating layer data
I0819 06:49:37.224205  2123 net.cpp:106] Creating Layer data
I0819 06:49:37.224233  2123 net.cpp:411] data -> data
I0819 06:49:37.224254  2123 net.cpp:411] data -> label
I0819 06:49:37.224267  2123 data_transformer.cpp:25] Loading mean file from: /home/qqxiao/data/trainData/imagenet_mean.binaryproto
I0819 06:49:37.224804  2133 db_lmdb.cpp:38] Opened lmdb /home/qqxiao/data/trainData/imagenet_train_leveldb
I0819 06:49:37.237470  2123 data_layer.cpp:41] output data size: 32,3,227,227
I0819 06:49:37.259150  2123 net.cpp:150] Setting up data
I0819 06:49:37.259186  2123 net.cpp:157] Top shape: 32 3 227 227 (4946784)
I0819 06:49:37.259191  2123 net.cpp:157] Top shape: 32 (32)
I0819 06:49:37.259196  2123 net.cpp:165] Memory required for data: 19787264
I0819 06:49:37.259202  2123 layer_factory.hpp:76] Creating layer conv1_1
I0819 06:49:37.259218  2123 net.cpp:106] Creating Layer conv1_1
I0819 06:49:37.259224  2123 net.cpp:454] conv1_1 <- data
I0819 06:49:37.259237  2123 net.cpp:411] conv1_1 -> conv1_1
I0819 06:49:37.362697  2123 net.cpp:150] Setting up conv1_1
I0819 06:49:37.362728  2123 net.cpp:157] Top shape: 32 64 227 227 (105531392)
I0819 06:49:37.362733  2123 net.cpp:165] Memory required for data: 441912832
I0819 06:49:37.362749  2123 layer_factory.hpp:76] Creating layer relu1_1
I0819 06:49:37.362761  2123 net.cpp:106] Creating Layer relu1_1
I0819 06:49:37.362766  2123 net.cpp:454] relu1_1 <- conv1_1
I0819 06:49:37.362771  2123 net.cpp:397] relu1_1 -> conv1_1 (in-place)
I0819 06:49:37.362951  2123 net.cpp:150] Setting up relu1_1
I0819 06:49:37.362960  2123 net.cpp:157] Top shape: 32 64 227 227 (105531392)
I0819 06:49:37.362964  2123 net.cpp:165] Memory required for data: 864038400
I0819 06:49:37.362968  2123 layer_factory.hpp:76] Creating layer conv1_2
I0819 06:49:37.362977  2123 net.cpp:106] Creating Layer conv1_2
I0819 06:49:37.362980  2123 net.cpp:454] conv1_2 <- conv1_1
I0819 06:49:37.362987  2123 net.cpp:411] conv1_2 -> conv1_2
I0819 06:49:37.363714  2123 net.cpp:150] Setting up conv1_2
I0819 06:49:37.363725  2123 net.cpp:157] Top shape: 32 64 227 227 (105531392)
I0819 06:49:37.363729  2123 net.cpp:165] Memory required for data: 1286163968
I0819 06:49:37.363736  2123 layer_factory.hpp:76] Creating layer relu1_2
I0819 06:49:37.363742  2123 net.cpp:106] Creating Layer relu1_2
I0819 06:49:37.363746  2123 net.cpp:454] relu1_2 <- conv1_2
I0819 06:49:37.363751  2123 net.cpp:397] relu1_2 -> conv1_2 (in-place)
I0819 06:49:37.363919  2123 net.cpp:150] Setting up relu1_2
I0819 06:49:37.363929  2123 net.cpp:157] Top shape: 32 64 227 227 (105531392)
I0819 06:49:37.363934  2123 net.cpp:165] Memory required for data: 1708289536
I0819 06:49:37.363937  2123 layer_factory.hpp:76] Creating layer pool1
I0819 06:49:37.363950  2123 net.cpp:106] Creating Layer pool1
I0819 06:49:37.363960  2123 net.cpp:454] pool1 <- conv1_2
I0819 06:49:37.363965  2123 net.cpp:411] pool1 -> pool1
I0819 06:49:37.364091  2123 net.cpp:150] Setting up pool1
I0819 06:49:37.364099  2123 net.cpp:157] Top shape: 32 64 114 114 (26615808)
I0819 06:49:37.364104  2123 net.cpp:165] Memory required for data: 1814752768
I0819 06:49:37.364107  2123 layer_factory.hpp:76] Creating layer conv2_1
I0819 06:49:37.364114  2123 net.cpp:106] Creating Layer conv2_1
I0819 06:49:37.364121  2123 net.cpp:454] conv2_1 <- pool1
I0819 06:49:37.364127  2123 net.cpp:411] conv2_1 -> conv2_1
I0819 06:49:37.365531  2123 net.cpp:150] Setting up conv2_1
I0819 06:49:37.365542  2123 net.cpp:157] Top shape: 32 128 114 114 (53231616)
I0819 06:49:37.365546  2123 net.cpp:165] Memory required for data: 2027679232
I0819 06:49:37.365555  2123 layer_factory.hpp:76] Creating layer relu2_1
I0819 06:49:37.365559  2123 net.cpp:106] Creating Layer relu2_1
I0819 06:49:37.365563  2123 net.cpp:454] relu2_1 <- conv2_1
I0819 06:49:37.365568  2123 net.cpp:397] relu2_1 -> conv2_1 (in-place)
I0819 06:49:37.365743  2123 net.cpp:150] Setting up relu2_1
I0819 06:49:37.365752  2123 net.cpp:157] Top shape: 32 128 114 114 (53231616)
I0819 06:49:37.365756  2123 net.cpp:165] Memory required for data: 2240605696
I0819 06:49:37.365761  2123 layer_factory.hpp:76] Creating layer conv2_2
I0819 06:49:37.365767  2123 net.cpp:106] Creating Layer conv2_2
I0819 06:49:37.365772  2123 net.cpp:454] conv2_2 <- conv2_1
I0819 06:49:37.365777  2123 net.cpp:411] conv2_2 -> conv2_2
I0819 06:49:37.366977  2123 net.cpp:150] Setting up conv2_2
I0819 06:49:37.366987  2123 net.cpp:157] Top shape: 32 128 114 114 (53231616)
I0819 06:49:37.366991  2123 net.cpp:165] Memory required for data: 2453532160
I0819 06:49:37.366997  2123 layer_factory.hpp:76] Creating layer relu2_2
I0819 06:49:37.367003  2123 net.cpp:106] Creating Layer relu2_2
I0819 06:49:37.367007  2123 net.cpp:454] relu2_2 <- conv2_2
I0819 06:49:37.367012  2123 net.cpp:397] relu2_2 -> conv2_2 (in-place)
I0819 06:49:37.367108  2123 net.cpp:150] Setting up relu2_2
I0819 06:49:37.367115  2123 net.cpp:157] Top shape: 32 128 114 114 (53231616)
I0819 06:49:37.367120  2123 net.cpp:165] Memory required for data: 2666458624
I0819 06:49:37.367123  2123 layer_factory.hpp:76] Creating layer pool2
I0819 06:49:37.367128  2123 net.cpp:106] Creating Layer pool2
I0819 06:49:37.367131  2123 net.cpp:454] pool2 <- conv2_2
I0819 06:49:37.367136  2123 net.cpp:411] pool2 -> pool2
I0819 06:49:37.367321  2123 net.cpp:150] Setting up pool2
I0819 06:49:37.367331  2123 net.cpp:157] Top shape: 32 128 57 57 (13307904)
I0819 06:49:37.367336  2123 net.cpp:165] Memory required for data: 2719690240
I0819 06:49:37.367338  2123 layer_factory.hpp:76] Creating layer conv3_1
I0819 06:49:37.367346  2123 net.cpp:106] Creating Layer conv3_1
I0819 06:49:37.367349  2123 net.cpp:454] conv3_1 <- pool2
I0819 06:49:37.367354  2123 net.cpp:411] conv3_1 -> conv3_1
I0819 06:49:37.369392  2123 net.cpp:150] Setting up conv3_1
I0819 06:49:37.369405  2123 net.cpp:157] Top shape: 32 256 57 57 (26615808)
I0819 06:49:37.369408  2123 net.cpp:165] Memory required for data: 2826153472
I0819 06:49:37.369415  2123 layer_factory.hpp:76] Creating layer relu3_1
I0819 06:49:37.369422  2123 net.cpp:106] Creating Layer relu3_1
I0819 06:49:37.369426  2123 net.cpp:454] relu3_1 <- conv3_1
I0819 06:49:37.369431  2123 net.cpp:397] relu3_1 -> conv3_1 (in-place)
I0819 06:49:37.369612  2123 net.cpp:150] Setting up relu3_1
I0819 06:49:37.369621  2123 net.cpp:157] Top shape: 32 256 57 57 (26615808)
I0819 06:49:37.369626  2123 net.cpp:165] Memory required for data: 2932616704
I0819 06:49:37.369629  2123 layer_factory.hpp:76] Creating layer conv3_2
I0819 06:49:37.369640  2123 net.cpp:106] Creating Layer conv3_2
I0819 06:49:37.369644  2123 net.cpp:454] conv3_2 <- conv3_1
I0819 06:49:37.369650  2123 net.cpp:411] conv3_2 -> conv3_2
I0819 06:49:37.373237  2123 net.cpp:150] Setting up conv3_2
I0819 06:49:37.373250  2123 net.cpp:157] Top shape: 32 256 57 57 (26615808)
I0819 06:49:37.373262  2123 net.cpp:165] Memory required for data: 3039079936
I0819 06:49:37.373267  2123 layer_factory.hpp:76] Creating layer relu3_2
I0819 06:49:37.373273  2123 net.cpp:106] Creating Layer relu3_2
I0819 06:49:37.373277  2123 net.cpp:454] relu3_2 <- conv3_2
I0819 06:49:37.373283  2123 net.cpp:397] relu3_2 -> conv3_2 (in-place)
I0819 06:49:37.373461  2123 net.cpp:150] Setting up relu3_2
I0819 06:49:37.373469  2123 net.cpp:157] Top shape: 32 256 57 57 (26615808)
I0819 06:49:37.373473  2123 net.cpp:165] Memory required for data: 3145543168
I0819 06:49:37.373477  2123 layer_factory.hpp:76] Creating layer conv3_3
I0819 06:49:37.373486  2123 net.cpp:106] Creating Layer conv3_3
I0819 06:49:37.373489  2123 net.cpp:454] conv3_3 <- conv3_2
I0819 06:49:37.373495  2123 net.cpp:411] conv3_3 -> conv3_3
I0819 06:49:37.377116  2123 net.cpp:150] Setting up conv3_3
I0819 06:49:37.377130  2123 net.cpp:157] Top shape: 32 256 57 57 (26615808)
I0819 06:49:37.377135  2123 net.cpp:165] Memory required for data: 3252006400
I0819 06:49:37.377140  2123 layer_factory.hpp:76] Creating layer relu3_3
I0819 06:49:37.377147  2123 net.cpp:106] Creating Layer relu3_3
I0819 06:49:37.377151  2123 net.cpp:454] relu3_3 <- conv3_3
I0819 06:49:37.377156  2123 net.cpp:397] relu3_3 -> conv3_3 (in-place)
I0819 06:49:37.377342  2123 net.cpp:150] Setting up relu3_3
I0819 06:49:37.377352  2123 net.cpp:157] Top shape: 32 256 57 57 (26615808)
I0819 06:49:37.377356  2123 net.cpp:165] Memory required for data: 3358469632
I0819 06:49:37.377359  2123 layer_factory.hpp:76] Creating layer pool3
I0819 06:49:37.377365  2123 net.cpp:106] Creating Layer pool3
I0819 06:49:37.377369  2123 net.cpp:454] pool3 <- conv3_3
I0819 06:49:37.377374  2123 net.cpp:411] pool3 -> pool3
I0819 06:49:37.377498  2123 net.cpp:150] Setting up pool3
I0819 06:49:37.377506  2123 net.cpp:157] Top shape: 32 256 29 29 (6889472)
I0819 06:49:37.377511  2123 net.cpp:165] Memory required for data: 3386027520
I0819 06:49:37.377513  2123 layer_factory.hpp:76] Creating layer conv4_1
I0819 06:49:37.377521  2123 net.cpp:106] Creating Layer conv4_1
I0819 06:49:37.377523  2123 net.cpp:454] conv4_1 <- pool3
I0819 06:49:37.377532  2123 net.cpp:411] conv4_1 -> conv4_1
I0819 06:49:37.384413  2123 net.cpp:150] Setting up conv4_1
I0819 06:49:37.384438  2123 net.cpp:157] Top shape: 32 512 29 29 (13778944)
I0819 06:49:37.384441  2123 net.cpp:165] Memory required for data: 3441143296
I0819 06:49:37.384449  2123 layer_factory.hpp:76] Creating layer relu4_1
I0819 06:49:37.384457  2123 net.cpp:106] Creating Layer relu4_1
I0819 06:49:37.384462  2123 net.cpp:454] relu4_1 <- conv4_1
I0819 06:49:37.384467  2123 net.cpp:397] relu4_1 -> conv4_1 (in-place)
I0819 06:49:37.384656  2123 net.cpp:150] Setting up relu4_1
I0819 06:49:37.384666  2123 net.cpp:157] Top shape: 32 512 29 29 (13778944)
I0819 06:49:37.384670  2123 net.cpp:165] Memory required for data: 3496259072
I0819 06:49:37.384673  2123 layer_factory.hpp:76] Creating layer conv4_2
I0819 06:49:37.384683  2123 net.cpp:106] Creating Layer conv4_2
I0819 06:49:37.384688  2123 net.cpp:454] conv4_2 <- conv4_1
I0819 06:49:37.384693  2123 net.cpp:411] conv4_2 -> conv4_2
I0819 06:49:37.397552  2123 net.cpp:150] Setting up conv4_2
I0819 06:49:37.397584  2123 net.cpp:157] Top shape: 32 512 29 29 (13778944)
I0819 06:49:37.397588  2123 net.cpp:165] Memory required for data: 3551374848
I0819 06:49:37.397600  2123 layer_factory.hpp:76] Creating layer relu4_2
I0819 06:49:37.397608  2123 net.cpp:106] Creating Layer relu4_2
I0819 06:49:37.397614  2123 net.cpp:454] relu4_2 <- conv4_2
I0819 06:49:37.397620  2123 net.cpp:397] relu4_2 -> conv4_2 (in-place)
I0819 06:49:37.397811  2123 net.cpp:150] Setting up relu4_2
I0819 06:49:37.397820  2123 net.cpp:157] Top shape: 32 512 29 29 (13778944)
I0819 06:49:37.397825  2123 net.cpp:165] Memory required for data: 3606490624
I0819 06:49:37.397828  2123 layer_factory.hpp:76] Creating layer conv4_3
I0819 06:49:37.397837  2123 net.cpp:106] Creating Layer conv4_3
I0819 06:49:37.397841  2123 net.cpp:454] conv4_3 <- conv4_2
I0819 06:49:37.397855  2123 net.cpp:411] conv4_3 -> conv4_3
I0819 06:49:37.410774  2123 net.cpp:150] Setting up conv4_3
I0819 06:49:37.410804  2123 net.cpp:157] Top shape: 32 512 29 29 (13778944)
I0819 06:49:37.410809  2123 net.cpp:165] Memory required for data: 3661606400
I0819 06:49:37.410817  2123 layer_factory.hpp:76] Creating layer relu4_3
I0819 06:49:37.410825  2123 net.cpp:106] Creating Layer relu4_3
I0819 06:49:37.410830  2123 net.cpp:454] relu4_3 <- conv4_3
I0819 06:49:37.410835  2123 net.cpp:397] relu4_3 -> conv4_3 (in-place)
I0819 06:49:37.410949  2123 net.cpp:150] Setting up relu4_3
I0819 06:49:37.410956  2123 net.cpp:157] Top shape: 32 512 29 29 (13778944)
I0819 06:49:37.410960  2123 net.cpp:165] Memory required for data: 3716722176
I0819 06:49:37.410964  2123 layer_factory.hpp:76] Creating layer pool4
I0819 06:49:37.410970  2123 net.cpp:106] Creating Layer pool4
I0819 06:49:37.410974  2123 net.cpp:454] pool4 <- conv4_3
I0819 06:49:37.410979  2123 net.cpp:411] pool4 -> pool4
I0819 06:49:37.411182  2123 net.cpp:150] Setting up pool4
I0819 06:49:37.411192  2123 net.cpp:157] Top shape: 32 512 15 15 (3686400)
I0819 06:49:37.411196  2123 net.cpp:165] Memory required for data: 3731467776
I0819 06:49:37.411200  2123 layer_factory.hpp:76] Creating layer conv5_1
I0819 06:49:37.411208  2123 net.cpp:106] Creating Layer conv5_1
I0819 06:49:37.411212  2123 net.cpp:454] conv5_1 <- pool4
I0819 06:49:37.411218  2123 net.cpp:411] conv5_1 -> conv5_1
I0819 06:49:37.424237  2123 net.cpp:150] Setting up conv5_1
I0819 06:49:37.424269  2123 net.cpp:157] Top shape: 32 512 15 15 (3686400)
I0819 06:49:37.424273  2123 net.cpp:165] Memory required for data: 3746213376
I0819 06:49:37.424281  2123 layer_factory.hpp:76] Creating layer relu5_1
I0819 06:49:37.424290  2123 net.cpp:106] Creating Layer relu5_1
I0819 06:49:37.424295  2123 net.cpp:454] relu5_1 <- conv5_1
I0819 06:49:37.424300  2123 net.cpp:397] relu5_1 -> conv5_1 (in-place)
I0819 06:49:37.424417  2123 net.cpp:150] Setting up relu5_1
I0819 06:49:37.424424  2123 net.cpp:157] Top shape: 32 512 15 15 (3686400)
I0819 06:49:37.424428  2123 net.cpp:165] Memory required for data: 3760958976
I0819 06:49:37.424432  2123 layer_factory.hpp:76] Creating layer conv5_2
I0819 06:49:37.424441  2123 net.cpp:106] Creating Layer conv5_2
I0819 06:49:37.424446  2123 net.cpp:454] conv5_2 <- conv5_1
I0819 06:49:37.424451  2123 net.cpp:411] conv5_2 -> conv5_2
I0819 06:49:37.437368  2123 net.cpp:150] Setting up conv5_2
I0819 06:49:37.437398  2123 net.cpp:157] Top shape: 32 512 15 15 (3686400)
I0819 06:49:37.437403  2123 net.cpp:165] Memory required for data: 3775704576
I0819 06:49:37.437410  2123 layer_factory.hpp:76] Creating layer relu5_2
I0819 06:49:37.437418  2123 net.cpp:106] Creating Layer relu5_2
I0819 06:49:37.437422  2123 net.cpp:454] relu5_2 <- conv5_2
I0819 06:49:37.437429  2123 net.cpp:397] relu5_2 -> conv5_2 (in-place)
I0819 06:49:37.437543  2123 net.cpp:150] Setting up relu5_2
I0819 06:49:37.437551  2123 net.cpp:157] Top shape: 32 512 15 15 (3686400)
I0819 06:49:37.437554  2123 net.cpp:165] Memory required for data: 3790450176
I0819 06:49:37.437558  2123 layer_factory.hpp:76] Creating layer conv5_3
I0819 06:49:37.437567  2123 net.cpp:106] Creating Layer conv5_3
I0819 06:49:37.437572  2123 net.cpp:454] conv5_3 <- conv5_2
I0819 06:49:37.437578  2123 net.cpp:411] conv5_3 -> conv5_3
I0819 06:49:37.450579  2123 net.cpp:150] Setting up conv5_3
I0819 06:49:37.450611  2123 net.cpp:157] Top shape: 32 512 15 15 (3686400)
I0819 06:49:37.450615  2123 net.cpp:165] Memory required for data: 3805195776
I0819 06:49:37.450623  2123 layer_factory.hpp:76] Creating layer relu5_3
I0819 06:49:37.450633  2123 net.cpp:106] Creating Layer relu5_3
I0819 06:49:37.450636  2123 net.cpp:454] relu5_3 <- conv5_3
I0819 06:49:37.450644  2123 net.cpp:397] relu5_3 -> conv5_3 (in-place)
I0819 06:49:37.450832  2123 net.cpp:150] Setting up relu5_3
I0819 06:49:37.450842  2123 net.cpp:157] Top shape: 32 512 15 15 (3686400)
I0819 06:49:37.450846  2123 net.cpp:165] Memory required for data: 3819941376
I0819 06:49:37.450856  2123 layer_factory.hpp:76] Creating layer pool5
I0819 06:49:37.450870  2123 net.cpp:106] Creating Layer pool5
I0819 06:49:37.450873  2123 net.cpp:454] pool5 <- conv5_3
I0819 06:49:37.450881  2123 net.cpp:411] pool5 -> pool5
I0819 06:49:37.451011  2123 net.cpp:150] Setting up pool5
I0819 06:49:37.451020  2123 net.cpp:157] Top shape: 32 512 8 8 (1048576)
I0819 06:49:37.451023  2123 net.cpp:165] Memory required for data: 3824135680
I0819 06:49:37.451027  2123 layer_factory.hpp:76] Creating layer fc6-my
I0819 06:49:37.451038  2123 net.cpp:106] Creating Layer fc6-my
I0819 06:49:37.451042  2123 net.cpp:454] fc6-my <- pool5
I0819 06:49:37.451050  2123 net.cpp:411] fc6-my -> fc6-my
I0819 06:49:38.142427  2123 net.cpp:150] Setting up fc6-my
I0819 06:49:38.142458  2123 net.cpp:157] Top shape: 32 4096 (131072)
I0819 06:49:38.142463  2123 net.cpp:165] Memory required for data: 3824659968
I0819 06:49:38.142472  2123 layer_factory.hpp:76] Creating layer relu6
I0819 06:49:38.142482  2123 net.cpp:106] Creating Layer relu6
I0819 06:49:38.142487  2123 net.cpp:454] relu6 <- fc6-my
I0819 06:49:38.142493  2123 net.cpp:397] relu6 -> fc6-my (in-place)
I0819 06:49:38.142784  2123 net.cpp:150] Setting up relu6
I0819 06:49:38.142794  2123 net.cpp:157] Top shape: 32 4096 (131072)
I0819 06:49:38.142798  2123 net.cpp:165] Memory required for data: 3825184256
I0819 06:49:38.142802  2123 layer_factory.hpp:76] Creating layer drop6
I0819 06:49:38.142812  2123 net.cpp:106] Creating Layer drop6
I0819 06:49:38.142817  2123 net.cpp:454] drop6 <- fc6-my
I0819 06:49:38.142822  2123 net.cpp:397] drop6 -> fc6-my (in-place)
I0819 06:49:38.142846  2123 net.cpp:150] Setting up drop6
I0819 06:49:38.142853  2123 net.cpp:157] Top shape: 32 4096 (131072)
I0819 06:49:38.142855  2123 net.cpp:165] Memory required for data: 3825708544
I0819 06:49:38.142859  2123 layer_factory.hpp:76] Creating layer fc7
I0819 06:49:38.142871  2123 net.cpp:106] Creating Layer fc7
I0819 06:49:38.142875  2123 net.cpp:454] fc7 <- fc6-my
I0819 06:49:38.142881  2123 net.cpp:411] fc7 -> fc7
I0819 06:49:38.229485  2123 net.cpp:150] Setting up fc7
I0819 06:49:38.229516  2123 net.cpp:157] Top shape: 32 4096 (131072)
I0819 06:49:38.229519  2123 net.cpp:165] Memory required for data: 3826232832
I0819 06:49:38.229527  2123 layer_factory.hpp:76] Creating layer relu7
I0819 06:49:38.229537  2123 net.cpp:106] Creating Layer relu7
I0819 06:49:38.229542  2123 net.cpp:454] relu7 <- fc7
I0819 06:49:38.229547  2123 net.cpp:397] relu7 -> fc7 (in-place)
I0819 06:49:38.229718  2123 net.cpp:150] Setting up relu7
I0819 06:49:38.229727  2123 net.cpp:157] Top shape: 32 4096 (131072)
I0819 06:49:38.229730  2123 net.cpp:165] Memory required for data: 3826757120
I0819 06:49:38.229734  2123 layer_factory.hpp:76] Creating layer drop7
I0819 06:49:38.229740  2123 net.cpp:106] Creating Layer drop7
I0819 06:49:38.229743  2123 net.cpp:454] drop7 <- fc7
I0819 06:49:38.229749  2123 net.cpp:397] drop7 -> fc7 (in-place)
I0819 06:49:38.229769  2123 net.cpp:150] Setting up drop7
I0819 06:49:38.229775  2123 net.cpp:157] Top shape: 32 4096 (131072)
I0819 06:49:38.229779  2123 net.cpp:165] Memory required for data: 3827281408
I0819 06:49:38.229781  2123 layer_factory.hpp:76] Creating layer fc8-my100
I0819 06:49:38.229789  2123 net.cpp:106] Creating Layer fc8-my100
I0819 06:49:38.229794  2123 net.cpp:454] fc8-my100 <- fc7
I0819 06:49:38.229799  2123 net.cpp:411] fc8-my100 -> fc8-my100
I0819 06:49:38.232553  2123 net.cpp:150] Setting up fc8-my100
I0819 06:49:38.232563  2123 net.cpp:157] Top shape: 32 127 (4064)
I0819 06:49:38.232566  2123 net.cpp:165] Memory required for data: 3827297664
I0819 06:49:38.232571  2123 layer_factory.hpp:76] Creating layer loss
I0819 06:49:38.232580  2123 net.cpp:106] Creating Layer loss
I0819 06:49:38.232584  2123 net.cpp:454] loss <- fc8-my100
I0819 06:49:38.232589  2123 net.cpp:454] loss <- label
I0819 06:49:38.232596  2123 net.cpp:411] loss -> loss
I0819 06:49:38.232607  2123 layer_factory.hpp:76] Creating layer loss
…
I0819 06:49:38.233866  2123 net.cpp:322] The NetState phase (1) differed from the phase (0) specified by a rule in layer data
I0819 06:49:38.234053  2123 net.cpp:49] Initializing net from parameters: 
name: "VGG16Net"
state {
  phase: TEST
}
layer {
  name: "data"
  type: "Data"
  top: "data"
  top: "label"
  include {
    phase: TEST
  }
  transform_param {
    mirror: false
    crop_size: 227
    mean_file: "/home/qqxiao/data/trainData/imagenet_mean.binaryproto"
  }
  data_param {
    source: "/home/qqxiao/data/trainData/imagenet_val_leveldb"
    batch_size: 32
    backend: LMDB
  }
}
layer {
  name: "conv1_1"
  type: "Convolution"
  bottom: "data"
  top: "conv1_1"
  param {
    lr_mult: 1
    decay_mult: 1
  }
  param {
    lr_mult: 2
    decay_mult: 0
  }
  convolution_param {
    num_output: 64
    pad: 1
    kernel_size: 3
    stride: 1
    weight_filler {
      type: "xavier"
    }
    bias_filler {
      type: "constant"
      value: 0.2
    }
  }
}
layer {
  name: "relu1_1"
  type: "ReLU"
  bottom: "conv1_1"
  top: "conv1_1"
}
layer {
  name: "conv1_2"
  type: "Convolution"
  bottom: "conv1_1"
  top: "conv1_2"
  param {
    lr_mult: 1
    decay_mult: 1
  }
  param {
    lr_mult: 2
    decay_mult: 0
  }
  convolution_param {
    num_output: 64
    pad: 1
    kernel_size: 3
    stride: 1
    weight_filler {
      type: "xavier"
    }
    bias_filler {
      type: "constant"
      value: 0.2
    }
  }
}
layer {
  name: "relu1_2"
  type: "ReLU"
  bottom: "conv1_2"
  top: "conv1_2"
}
layer {
  name: "pool1"
  type: "Pooling"
  bottom: "conv1_2"
  top: "pool1"
  pooling_param {
    pool: MAX
    kernel_size: 2
    stride: 2
  }
}
layer {
  name: "conv2_1"
  type: "Convolution"
  bottom: "pool1"
  top: "conv2_1"
  param {
    lr_mult: 1
    decay_mult: 1
  }
  param {
    lr_mult: 2
    decay_mult: 0
  }
  convolution_param {
    num_output: 128
    pad: 1
    kernel_size: 3
    stride: 1
    weight_filler {
      type: "xavier"
    }
    bias_filler {
      type: "constant"
      value: 0.2
    }
  }
}
layer {
  name: "relu2_1"
  type: "ReLU"
  bottom: "conv2_1"
  top: "conv2_1"
}
layer {
  name: "conv2_2"
  type: "Convolution"
  bottom: "conv2_1"
  top: "conv2_2"
  param {
    lr_mult: 1
    decay_mult: 1
  }
  param {
    lr_mult: 2
    decay_mult: 0
  }
  convolution_param {
    num_output: 128
    pad: 1
    kernel_size: 3
    stride: 1
    weight_filler {
      type: "xavier"
    }
    bias_filler {
      type: "constant"
      value: 0.2
    }
  }
}
layer {
  name: "relu2_2"
  type: "ReLU"
  bottom: "conv2_2"
  top: "conv2_2"
}
layer {
  name: "pool2"
  type: "Pooling"
  bottom: "conv2_2"
  top: "pool2"
  pooling_param {
    pool: MAX
    kernel_size: 2
    stride: 2
  }
}
layer {
  name: "conv3_1"
  type: "Convolution"
  bottom: "pool2"
  top: "conv3_1"
  param {
    lr_mult: 1
    decay_mult: 1
  }
  param {
    lr_mult: 2
    decay_mult: 0
  }
  convolution_param {
    num_output: 256
    pad: 1
    kernel_size: 3
    stride: 1
    weight_filler {
      type: "xavier"
    }
    bias_filler {
      type: "constant"
      value: 0.2
    }
  }
}
layer {
  name: "relu3_1"
  type: "ReLU"
  bottom: "conv3_1"
  top: "conv3_1"
}
layer {
  name: "conv3_2"
  type: "Convolution"
  bottom: "conv3_1"
  top: "conv3_2"
  param {
    lr_mult: 1
    decay_mult: 1
  }
  param {
    lr_mult: 2
    decay_mult: 0
  }
  convolution_param {
    num_output: 256
    pad: 1
    kernel_size: 3
    stride: 1
    weight_filler {
      type: "xavier"
    }
    bias_filler {
      type: "constant"
      value: 0.2
    }
  }
}
layer {
  name: "relu3_2"
  type: "ReLU"
  bottom: "conv3_2"
  top: "conv3_2"
}
layer {
  name: "conv3_3"
  type: "Convolution"
  bottom: "conv3_2"
  top: "conv3_3"
  param {
    lr_mult: 1
    decay_mult: 1
  }
  param {
    lr_mult: 2
    decay_mult: 0
  }
  convolution_param {
    num_output: 256
    pad: 1
    kernel_size: 3
    stride: 1
    weight_filler {
      type: "xavier"
    }
    bias_filler {
      type: "constant"
      value: 0.2
    }
  }
}
layer {
  name: "relu3_3"
  type: "ReLU"
  bottom: "conv3_3"
  top: "conv3_3"
}
layer {
  name: "pool3"
  type: "Pooling"
  bottom: "conv3_3"
  top: "pool3"
  pooling_param {
    pool: MAX
    kernel_size: 2
    stride: 2
  }
}
layer {
  name: "conv4_1"
  type: "Convolution"
  bottom: "pool3"
  top: "conv4_1"
  param {
    lr_mult: 1
    decay_mult: 1
  }
  param {
    lr_mult: 2
    decay_mult: 0
  }
  convolution_param {
    num_output: 512
    pad: 1
    kernel_size: 3
    stride: 1
    weight_filler {
      type: "xavier"
    }
    bias_filler {
      type: "constant"
      value: 0.2
    }
  }
}
layer {
  name: "relu4_1"
  type: "ReLU"
  bottom: "conv4_1"
  top: "conv4_1"
}
layer {
  name: "conv4_2"
  type: "Convolution"
  bottom: "conv4_1"
  top: "conv4_2"
  param {
    lr_mult: 1
    decay_mult: 1
  }
  param {
    lr_mult: 2
    decay_mult: 0
  }
  convolution_param {
    num_output: 512
    pad: 1
    kernel_size: 3
    stride: 1
    weight_filler {
      type: "xavier"
    }
    bias_filler {
      type: "constant"
      value: 0.2
    }
  }
}
layer {
  name: "relu4_2"
  type: "ReLU"
  bottom: "conv4_2"
  top: "conv4_2"
}
layer {
  name: "conv4_3"
  type: "Convolution"
  bottom: "conv4_2"
  top: "conv4_3"
  param {
    lr_mult: 1
    decay_mult: 1
  }
  param {
    lr_mult: 2
    decay_mult: 0
  }
  convolution_param {
    num_output: 512
    pad: 1
    kernel_size: 3
    stride: 1
    weight_filler {
      type: "xavier"
    }
    bias_filler {
      type: "constant"
      value: 0.2
    }
  }
}
layer {
  name: "relu4_3"
  type: "ReLU"
  bottom: "conv4_3"
  top: "conv4_3"
}
layer {
  name: "pool4"
  type: "Pooling"
  bottom: "conv4_3"
  top: "pool4"
  pooling_param {
    pool: MAX
    kernel_size: 2
    stride: 2
  }
}
layer {
  name: "conv5_1"
  type: "Convolution"
  bottom: "pool4"
  top: "conv5_1"
  param {
    lr_mult: 1
    decay_mult: 1
  }
  param {
    lr_mult: 2
    decay_mult: 0
  }
  convolution_param {
    num_output: 512
    pad: 1
    kernel_size: 3
    stride: 1
    weight_filler {
      type: "xavier"
    }
    bias_filler {
      type: "constant"
      value: 0.2
    }
  }
}
layer {
  name: "relu5_1"
  type: "ReLU"
  bottom: "conv5_1"
  top: "conv5_1"
}
layer {
  name: "conv5_2"
  type: "Convolution"
  bottom: "conv5_1"
  top: "conv5_2"
  param {
    lr_mult: 1
    decay_mult: 1
  }
  param {
    lr_mult: 2
    decay_mult: 0
  }
  convolution_param {
    num_output: 512
    pad: 1
    kernel_size: 3
    stride: 1
    weight_filler {
      type: "xavier"
    }
    bias_filler {
      type: "constant"
      value: 0.2
    }
  }
}
layer {
  name: "relu5_2"
  type: "ReLU"
  bottom: "conv5_2"
  top: "conv5_2"
}
layer {
  name: "conv5_3"
  type: "Convolution"
  bottom: "conv5_2"
  top: "conv5_3"
  param {
    lr_mult: 1
    decay_mult: 1
  }
  param {
    lr_mult: 2
    decay_mult: 0
  }
  convolution_param {
    num_output: 512
    pad: 1
    kernel_size: 3
    stride: 1
    weight_filler {
      type: "xavier"
    }
    bias_filler {
      type: "constant"
      value: 0.2
    }
  }
}
layer {
  name: "relu5_3"
  type: "ReLU"
  bottom: "conv5_3"
  top: "conv5_3"
}
layer {
  name: "pool5"
  type: "Pooling"
  bottom: "conv5_3"
  top: "pool5"
  pooling_param {
    pool: MAX
    kernel_size: 2
    stride: 2
  }
}
layer {
  name: "fc6-my"
  type: "InnerProduct"
  bottom: "pool5"
  top: "fc6-my"
  param {
    lr_mult: 1
    decay_mult: 1
  }
  param {
    lr_mult: 2
    decay_mult: 0
  }
  inner_product_param {
    num_output: 4096
    weight_filler {
      type: "xavier"
    }
    bias_filler {
      type: "constant"
      value: 0
    }
  }
}
layer {
  name: "relu6"
  type: "ReLU"
  bottom: "fc6-my"
  top: "fc6-my"
}
layer {
  name: "drop6"
  type: "Dropout"
  bottom: "fc6-my"
  top: "fc6-my"
  dropout_param {
    dropout_ratio: 0.5
  }
}
layer {
  name: "fc7"
  type: "InnerProduct"
  bottom: "fc6-my"
  top: "fc7"
  param {
    lr_mult: 1
    decay_mult: 1
  }
  param {
    lr_mult: 2
    decay_mult: 0
  }
  inner_product_param {
    num_output: 4096
    weight_filler {
      type: "xavier"
    }
    bias_filler {
      type: "constant"
      value: 0
    }
  }
}
layer {
  name: "relu7"
  type: "ReLU"
  bottom: "fc7"
  top: "fc7"
}
layer {
  name: "drop7"
  type: "Dropout"
  bottom: "fc7"
  top: "fc7"
  dropout_param {
    dropout_ratio: 0.5
  }
}
layer {
  name: "fc8-my100"
  type: "InnerProduct"
  bottom: "fc7"
  top: "fc8-my100"
  param {
    lr_mult: 1
    decay_mult: 1
  }
  param {
    lr_mult: 2
    decay_mult: 0
  }
  inner_product_param {
    num_output: 127
    weight_filler {
      type: "xavier"
    }
    bias_filler {
      type: "constant"
      value: 0
    }
  }
}
layer {
  name: "accuracy"
  type: "Accuracy"
  bottom: "fc8-my100"
  bottom: "label"
  top: "accuracy"
  include {
    phase: TEST
  }
}
layer {
  name: "loss"
  type: "SoftmaxWithLoss"
  bottom: "fc8-my100"
  bottom: "label"
  top: "loss"
}
I0819 06:49:38.234169  2123 layer_factory.hpp:76] Creating layer data
I0819 06:49:38.234222  2123 net.cpp:106] Creating Layer data
I0819 06:49:38.234232  2123 net.cpp:411] data -> data
I0819 06:49:38.234241  2123 net.cpp:411] data -> label
I0819 06:49:38.234248  2123 data_transformer.cpp:25] Loading mean file from: /home/qqxiao/data/trainData/imagenet_mean.binaryproto
I0819 06:49:38.234804  2135 db_lmdb.cpp:38] Opened lmdb /home/qqxiao/data/trainData/imagenet_val_leveldb
I0819 06:49:38.235766  2123 data_layer.cpp:41] output data size: 32,3,227,227
I0819 06:49:38.257573  2123 net.cpp:150] Setting up data
I0819 06:49:38.257606  2123 net.cpp:157] Top shape: 32 3 227 227 (4946784)
I0819 06:49:38.257611  2123 net.cpp:157] Top shape: 32 (32)
I0819 06:49:38.257616  2123 net.cpp:165] Memory required for data: 19787264
I0819 06:49:38.257622  2123 layer_factory.hpp:76] Creating layer label_data_1_split
I0819 06:49:38.257633  2123 net.cpp:106] Creating Layer label_data_1_split
I0819 06:49:38.257638  2123 net.cpp:454] label_data_1_split <- label
I0819 06:49:38.257644  2123 net.cpp:411] label_data_1_split -> label_data_1_split_0
I0819 06:49:38.257653  2123 net.cpp:411] label_data_1_split -> label_data_1_split_1
I0819 06:49:38.257730  2123 net.cpp:150] Setting up label_data_1_split
I0819 06:49:38.257735  2123 net.cpp:157] Top shape: 32 (32)
I0819 06:49:38.257740  2123 net.cpp:157] Top shape: 32 (32)
I0819 06:49:38.257743  2123 net.cpp:165] Memory required for data: 19787520
I0819 06:49:38.257746  2123 layer_factory.hpp:76] Creating layer conv1_1
I0819 06:49:38.257756  2123 net.cpp:106] Creating Layer conv1_1
I0819 06:49:38.257761  2123 net.cpp:454] conv1_1 <- data
I0819 06:49:38.257766  2123 net.cpp:411] conv1_1 -> conv1_1
I0819 06:49:38.260267  2123 net.cpp:150] Setting up conv1_1
I0819 06:49:38.260282  2123 net.cpp:157] Top shape: 32 64 227 227 (105531392)
I0819 06:49:38.260287  2123 net.cpp:165] Memory required for data: 441913088
I0819 06:49:38.260298  2123 layer_factory.hpp:76] Creating layer relu1_1
I0819 06:49:38.260304  2123 net.cpp:106] Creating Layer relu1_1
I0819 06:49:38.260309  2123 net.cpp:454] relu1_1 <- conv1_1
I0819 06:49:38.260315  2123 net.cpp:397] relu1_1 -> conv1_1 (in-place)
I0819 06:49:38.260453  2123 net.cpp:150] Setting up relu1_1
I0819 06:49:38.260462  2123 net.cpp:157] Top shape: 32 64 227 227 (105531392)
I0819 06:49:38.260468  2123 net.cpp:165] Memory required for data: 864038656
I0819 06:49:38.260471  2123 layer_factory.hpp:76] Creating layer conv1_2
I0819 06:49:38.260480  2123 net.cpp:106] Creating Layer conv1_2
I0819 06:49:38.260485  2123 net.cpp:454] conv1_2 <- conv1_1
I0819 06:49:38.260493  2123 net.cpp:411] conv1_2 -> conv1_2
I0819 06:49:38.261862  2123 net.cpp:150] Setting up conv1_2
I0819 06:49:38.261878  2123 net.cpp:157] Top shape: 32 64 227 227 (105531392)
I0819 06:49:38.261883  2123 net.cpp:165] Memory required for data: 1286164224
I0819 06:49:38.261893  2123 layer_factory.hpp:76] Creating layer relu1_2
I0819 06:49:38.261900  2123 net.cpp:106] Creating Layer relu1_2
I0819 06:49:38.261905  2123 net.cpp:454] relu1_2 <- conv1_2
I0819 06:49:38.261911  2123 net.cpp:397] relu1_2 -> conv1_2 (in-place)
I0819 06:49:38.262137  2123 net.cpp:150] Setting up relu1_2
I0819 06:49:38.262150  2123 net.cpp:157] Top shape: 32 64 227 227 (105531392)
I0819 06:49:38.262154  2123 net.cpp:165] Memory required for data: 1708289792
I0819 06:49:38.262159  2123 layer_factory.hpp:76] Creating layer pool1
I0819 06:49:38.262166  2123 net.cpp:106] Creating Layer pool1
I0819 06:49:38.262171  2123 net.cpp:454] pool1 <- conv1_2
I0819 06:49:38.262176  2123 net.cpp:411] pool1 -> pool1
I0819 06:49:38.262334  2123 net.cpp:150] Setting up pool1
I0819 06:49:38.262344  2123 net.cpp:157] Top shape: 32 64 114 114 (26615808)
I0819 06:49:38.262348  2123 net.cpp:165] Memory required for data: 1814753024
I0819 06:49:38.262353  2123 layer_factory.hpp:76] Creating layer conv2_1
I0819 06:49:38.262368  2123 net.cpp:106] Creating Layer conv2_1
I0819 06:49:38.262382  2123 net.cpp:454] conv2_1 <- pool1
I0819 06:49:38.262389  2123 net.cpp:411] conv2_1 -> conv2_1
I0819 06:49:38.263860  2123 net.cpp:150] Setting up conv2_1
I0819 06:49:38.263876  2123 net.cpp:157] Top shape: 32 128 114 114 (53231616)
I0819 06:49:38.263881  2123 net.cpp:165] Memory required for data: 2027679488
I0819 06:49:38.263891  2123 layer_factory.hpp:76] Creating layer relu2_1
I0819 06:49:38.263900  2123 net.cpp:106] Creating Layer relu2_1
I0819 06:49:38.263905  2123 net.cpp:454] relu2_1 <- conv2_1
I0819 06:49:38.263911  2123 net.cpp:397] relu2_1 -> conv2_1 (in-place)
I0819 06:49:38.264050  2123 net.cpp:150] Setting up relu2_1
I0819 06:49:38.264061  2123 net.cpp:157] Top shape: 32 128 114 114 (53231616)
I0819 06:49:38.264065  2123 net.cpp:165] Memory required for data: 2240605952
I0819 06:49:38.264070  2123 layer_factory.hpp:76] Creating layer conv2_2
I0819 06:49:38.264078  2123 net.cpp:106] Creating Layer conv2_2
I0819 06:49:38.264083  2123 net.cpp:454] conv2_2 <- conv2_1
I0819 06:49:38.264089  2123 net.cpp:411] conv2_2 -> conv2_2
I0819 06:49:38.265698  2123 net.cpp:150] Setting up conv2_2
I0819 06:49:38.265715  2123 net.cpp:157] Top shape: 32 128 114 114 (53231616)
I0819 06:49:38.265720  2123 net.cpp:165] Memory required for data: 2453532416
I0819 06:49:38.265727  2123 layer_factory.hpp:76] Creating layer relu2_2
I0819 06:49:38.265734  2123 net.cpp:106] Creating Layer relu2_2
I0819 06:49:38.265739  2123 net.cpp:454] relu2_2 <- conv2_2
I0819 06:49:38.265745  2123 net.cpp:397] relu2_2 -> conv2_2 (in-place)
I0819 06:49:38.265969  2123 net.cpp:150] Setting up relu2_2
I0819 06:49:38.265980  2123 net.cpp:157] Top shape: 32 128 114 114 (53231616)
I0819 06:49:38.265985  2123 net.cpp:165] Memory required for data: 2666458880
I0819 06:49:38.265990  2123 layer_factory.hpp:76] Creating layer pool2
I0819 06:49:38.265996  2123 net.cpp:106] Creating Layer pool2
I0819 06:49:38.266001  2123 net.cpp:454] pool2 <- conv2_2
I0819 06:49:38.266007  2123 net.cpp:411] pool2 -> pool2
I0819 06:49:38.266165  2123 net.cpp:150] Setting up pool2
I0819 06:49:38.266175  2123 net.cpp:157] Top shape: 32 128 57 57 (13307904)
I0819 06:49:38.266180  2123 net.cpp:165] Memory required for data: 2719690496
I0819 06:49:38.266183  2123 layer_factory.hpp:76] Creating layer conv3_1
I0819 06:49:38.266192  2123 net.cpp:106] Creating Layer conv3_1
I0819 06:49:38.266197  2123 net.cpp:454] conv3_1 <- pool2
I0819 06:49:38.266203  2123 net.cpp:411] conv3_1 -> conv3_1
I0819 06:49:38.269023  2123 net.cpp:150] Setting up conv3_1
I0819 06:49:38.269047  2123 net.cpp:157] Top shape: 32 256 57 57 (26615808)
I0819 06:49:38.269052  2123 net.cpp:165] Memory required for data: 2826153728
I0819 06:49:38.269064  2123 layer_factory.hpp:76] Creating layer relu3_1
I0819 06:49:38.269073  2123 net.cpp:106] Creating Layer relu3_1
I0819 06:49:38.269078  2123 net.cpp:454] relu3_1 <- conv3_1
I0819 06:49:38.269084  2123 net.cpp:397] relu3_1 -> conv3_1 (in-place)
I0819 06:49:38.269316  2123 net.cpp:150] Setting up relu3_1
I0819 06:49:38.269327  2123 net.cpp:157] Top shape: 32 256 57 57 (26615808)
I0819 06:49:38.269332  2123 net.cpp:165] Memory required for data: 2932616960
I0819 06:49:38.269337  2123 layer_factory.hpp:76] Creating layer conv3_2
I0819 06:49:38.269345  2123 net.cpp:106] Creating Layer conv3_2
I0819 06:49:38.269351  2123 net.cpp:454] conv3_2 <- conv3_1
I0819 06:49:38.269357  2123 net.cpp:411] conv3_2 -> conv3_2
I0819 06:49:38.273706  2123 net.cpp:150] Setting up conv3_2
I0819 06:49:38.273736  2123 net.cpp:157] Top shape: 32 256 57 57 (26615808)
I0819 06:49:38.273748  2123 net.cpp:165] Memory required for data: 3039080192
I0819 06:49:38.273756  2123 layer_factory.hpp:76] Creating layer relu3_2
I0819 06:49:38.273764  2123 net.cpp:106] Creating Layer relu3_2
I0819 06:49:38.273769  2123 net.cpp:454] relu3_2 <- conv3_2
I0819 06:49:38.273775  2123 net.cpp:397] relu3_2 -> conv3_2 (in-place)
I0819 06:49:38.273963  2123 net.cpp:150] Setting up relu3_2
I0819 06:49:38.273973  2123 net.cpp:157] Top shape: 32 256 57 57 (26615808)
I0819 06:49:38.273993  2123 net.cpp:165] Memory required for data: 3145543424
I0819 06:49:38.273996  2123 layer_factory.hpp:76] Creating layer conv3_3
I0819 06:49:38.274005  2123 net.cpp:106] Creating Layer conv3_3
I0819 06:49:38.274009  2123 net.cpp:454] conv3_3 <- conv3_2
I0819 06:49:38.274015  2123 net.cpp:411] conv3_3 -> conv3_3
I0819 06:49:38.279206  2123 net.cpp:150] Setting up conv3_3
I0819 06:49:38.279228  2123 net.cpp:157] Top shape: 32 256 57 57 (26615808)
I0819 06:49:38.279232  2123 net.cpp:165] Memory required for data: 3252006656
I0819 06:49:38.279239  2123 layer_factory.hpp:76] Creating layer relu3_3
I0819 06:49:38.279247  2123 net.cpp:106] Creating Layer relu3_3
I0819 06:49:38.279252  2123 net.cpp:454] relu3_3 <- conv3_3
I0819 06:49:38.279256  2123 net.cpp:397] relu3_3 -> conv3_3 (in-place)
I0819 06:49:38.279366  2123 net.cpp:150] Setting up relu3_3
I0819 06:49:38.279373  2123 net.cpp:157] Top shape: 32 256 57 57 (26615808)
I0819 06:49:38.279376  2123 net.cpp:165] Memory required for data: 3358469888
I0819 06:49:38.279381  2123 layer_factory.hpp:76] Creating layer pool3
I0819 06:49:38.279386  2123 net.cpp:106] Creating Layer pool3
I0819 06:49:38.279391  2123 net.cpp:454] pool3 <- conv3_3
I0819 06:49:38.279404  2123 net.cpp:411] pool3 -> pool3
I0819 06:49:38.279624  2123 net.cpp:150] Setting up pool3
I0819 06:49:38.279634  2123 net.cpp:157] Top shape: 32 256 29 29 (6889472)
I0819 06:49:38.279639  2123 net.cpp:165] Memory required for data: 3386027776
I0819 06:49:38.279642  2123 layer_factory.hpp:76] Creating layer conv4_1
I0819 06:49:38.279649  2123 net.cpp:106] Creating Layer conv4_1
I0819 06:49:38.279654  2123 net.cpp:454] conv4_1 <- pool3
I0819 06:49:38.279659  2123 net.cpp:411] conv4_1 -> conv4_1
I0819 06:49:38.286919  2123 net.cpp:150] Setting up conv4_1
I0819 06:49:38.286952  2123 net.cpp:157] Top shape: 32 512 29 29 (13778944)
I0819 06:49:38.286955  2123 net.cpp:165] Memory required for data: 3441143552
I0819 06:49:38.286964  2123 layer_factory.hpp:76] Creating layer relu4_1
I0819 06:49:38.286981  2123 net.cpp:106] Creating Layer relu4_1
I0819 06:49:38.286988  2123 net.cpp:454] relu4_1 <- conv4_1
I0819 06:49:38.286993  2123 net.cpp:397] relu4_1 -> conv4_1 (in-place)
I0819 06:49:38.287106  2123 net.cpp:150] Setting up relu4_1
I0819 06:49:38.287113  2123 net.cpp:157] Top shape: 32 512 29 29 (13778944)
I0819 06:49:38.287117  2123 net.cpp:165] Memory required for data: 3496259328
I0819 06:49:38.287120  2123 layer_factory.hpp:76] Creating layer conv4_2
I0819 06:49:38.287128  2123 net.cpp:106] Creating Layer conv4_2
I0819 06:49:38.287132  2123 net.cpp:454] conv4_2 <- conv4_1
I0819 06:49:38.287137  2123 net.cpp:411] conv4_2 -> conv4_2
I0819 06:49:38.301138  2123 net.cpp:150] Setting up conv4_2
I0819 06:49:38.301167  2123 net.cpp:157] Top shape: 32 512 29 29 (13778944)
I0819 06:49:38.301172  2123 net.cpp:165] Memory required for data: 3551375104
I0819 06:49:38.301183  2123 layer_factory.hpp:76] Creating layer relu4_2
I0819 06:49:38.301192  2123 net.cpp:106] Creating Layer relu4_2
I0819 06:49:38.301197  2123 net.cpp:454] relu4_2 <- conv4_2
I0819 06:49:38.301203  2123 net.cpp:397] relu4_2 -> conv4_2 (in-place)
I0819 06:49:38.301411  2123 net.cpp:150] Setting up relu4_2
I0819 06:49:38.301430  2123 net.cpp:157] Top shape: 32 512 29 29 (13778944)
I0819 06:49:38.301434  2123 net.cpp:165] Memory required for data: 3606490880
I0819 06:49:38.301439  2123 layer_factory.hpp:76] Creating layer conv4_3
I0819 06:49:38.301446  2123 net.cpp:106] Creating Layer conv4_3
I0819 06:49:38.301450  2123 net.cpp:454] conv4_3 <- conv4_2
I0819 06:49:38.301457  2123 net.cpp:411] conv4_3 -> conv4_3
I0819 06:49:38.315129  2123 net.cpp:150] Setting up conv4_3
I0819 06:49:38.315157  2123 net.cpp:157] Top shape: 32 512 29 29 (13778944)
I0819 06:49:38.315162  2123 net.cpp:165] Memory required for data: 3661606656
I0819 06:49:38.315170  2123 layer_factory.hpp:76] Creating layer relu4_3
I0819 06:49:38.315178  2123 net.cpp:106] Creating Layer relu4_3
I0819 06:49:38.315183  2123 net.cpp:454] relu4_3 <- conv4_3
I0819 06:49:38.315196  2123 net.cpp:397] relu4_3 -> conv4_3 (in-place)
I0819 06:49:38.315402  2123 net.cpp:150] Setting up relu4_3
I0819 06:49:38.315412  2123 net.cpp:157] Top shape: 32 512 29 29 (13778944)
I0819 06:49:38.315418  2123 net.cpp:165] Memory required for data: 3716722432
I0819 06:49:38.315420  2123 layer_factory.hpp:76] Creating layer pool4
I0819 06:49:38.315428  2123 net.cpp:106] Creating Layer pool4
I0819 06:49:38.315430  2123 net.cpp:454] pool4 <- conv4_3
I0819 06:49:38.315435  2123 net.cpp:411] pool4 -> pool4
I0819 06:49:38.315595  2123 net.cpp:150] Setting up pool4
I0819 06:49:38.315603  2123 net.cpp:157] Top shape: 32 512 15 15 (3686400)
I0819 06:49:38.315608  2123 net.cpp:165] Memory required for data: 3731468032
I0819 06:49:38.315610  2123 layer_factory.hpp:76] Creating layer conv5_1
I0819 06:49:38.315620  2123 net.cpp:106] Creating Layer conv5_1
I0819 06:49:38.315624  2123 net.cpp:454] conv5_1 <- pool4
I0819 06:49:38.315629  2123 net.cpp:411] conv5_1 -> conv5_1
I0819 06:49:38.328722  2123 net.cpp:150] Setting up conv5_1
I0819 06:49:38.328752  2123 net.cpp:157] Top shape: 32 512 15 15 (3686400)
I0819 06:49:38.328758  2123 net.cpp:165] Memory required for data: 3746213632
I0819 06:49:38.328765  2123 layer_factory.hpp:76] Creating layer relu5_1
I0819 06:49:38.328774  2123 net.cpp:106] Creating Layer relu5_1
I0819 06:49:38.328779  2123 net.cpp:454] relu5_1 <- conv5_1
I0819 06:49:38.328785  2123 net.cpp:397] relu5_1 -> conv5_1 (in-place)
I0819 06:49:38.328994  2123 net.cpp:150] Setting up relu5_1
I0819 06:49:38.329005  2123 net.cpp:157] Top shape: 32 512 15 15 (3686400)
I0819 06:49:38.329007  2123 net.cpp:165] Memory required for data: 3760959232
I0819 06:49:38.329011  2123 layer_factory.hpp:76] Creating layer conv5_2
I0819 06:49:38.329022  2123 net.cpp:106] Creating Layer conv5_2
I0819 06:49:38.329026  2123 net.cpp:454] conv5_2 <- conv5_1
I0819 06:49:38.329032  2123 net.cpp:411] conv5_2 -> conv5_2
I0819 06:49:38.342062  2123 net.cpp:150] Setting up conv5_2
I0819 06:49:38.342095  2123 net.cpp:157] Top shape: 32 512 15 15 (3686400)
I0819 06:49:38.342099  2123 net.cpp:165] Memory required for data: 3775704832
I0819 06:49:38.342108  2123 layer_factory.hpp:76] Creating layer relu5_2
I0819 06:49:38.342116  2123 net.cpp:106] Creating Layer relu5_2
I0819 06:49:38.342120  2123 net.cpp:454] relu5_2 <- conv5_2
I0819 06:49:38.342128  2123 net.cpp:397] relu5_2 -> conv5_2 (in-place)
I0819 06:49:38.342245  2123 net.cpp:150] Setting up relu5_2
I0819 06:49:38.342253  2123 net.cpp:157] Top shape: 32 512 15 15 (3686400)
I0819 06:49:38.342257  2123 net.cpp:165] Memory required for data: 3790450432
I0819 06:49:38.342260  2123 layer_factory.hpp:76] Creating layer conv5_3
I0819 06:49:38.342269  2123 net.cpp:106] Creating Layer conv5_3
I0819 06:49:38.342274  2123 net.cpp:454] conv5_3 <- conv5_2
I0819 06:49:38.342281  2123 net.cpp:411] conv5_3 -> conv5_3
I0819 06:49:38.355427  2123 net.cpp:150] Setting up conv5_3
I0819 06:49:38.355458  2123 net.cpp:157] Top shape: 32 512 15 15 (3686400)
I0819 06:49:38.355463  2123 net.cpp:165] Memory required for data: 3805196032
I0819 06:49:38.355470  2123 layer_factory.hpp:76] Creating layer relu5_3
I0819 06:49:38.355479  2123 net.cpp:106] Creating Layer relu5_3
I0819 06:49:38.355484  2123 net.cpp:454] relu5_3 <- conv5_3
I0819 06:49:38.355490  2123 net.cpp:397] relu5_3 -> conv5_3 (in-place)
I0819 06:49:38.355608  2123 net.cpp:150] Setting up relu5_3
I0819 06:49:38.355617  2123 net.cpp:157] Top shape: 32 512 15 15 (3686400)
I0819 06:49:38.355619  2123 net.cpp:165] Memory required for data: 3819941632
I0819 06:49:38.355623  2123 layer_factory.hpp:76] Creating layer pool5
I0819 06:49:38.355633  2123 net.cpp:106] Creating Layer pool5
I0819 06:49:38.355636  2123 net.cpp:454] pool5 <- conv5_3
I0819 06:49:38.355643  2123 net.cpp:411] pool5 -> pool5
I0819 06:49:38.355883  2123 net.cpp:150] Setting up pool5
I0819 06:49:38.355892  2123 net.cpp:157] Top shape: 32 512 8 8 (1048576)
I0819 06:49:38.355896  2123 net.cpp:165] Memory required for data: 3824135936
I0819 06:49:38.355901  2123 layer_factory.hpp:76] Creating layer fc6-my
I0819 06:49:38.355919  2123 net.cpp:106] Creating Layer fc6-my
I0819 06:49:38.355924  2123 net.cpp:454] fc6-my <- pool5
I0819 06:49:38.355931  2123 net.cpp:411] fc6-my -> fc6-my
I0819 06:49:39.047468  2123 net.cpp:150] Setting up fc6-my
I0819 06:49:39.047502  2123 net.cpp:157] Top shape: 32 4096 (131072)
I0819 06:49:39.047505  2123 net.cpp:165] Memory required for data: 3824660224
I0819 06:49:39.047514  2123 layer_factory.hpp:76] Creating layer relu6
I0819 06:49:39.047523  2123 net.cpp:106] Creating Layer relu6
I0819 06:49:39.047528  2123 net.cpp:454] relu6 <- fc6-my
I0819 06:49:39.047535  2123 net.cpp:397] relu6 -> fc6-my (in-place)
I0819 06:49:39.047724  2123 net.cpp:150] Setting up relu6
I0819 06:49:39.047731  2123 net.cpp:157] Top shape: 32 4096 (131072)
I0819 06:49:39.047735  2123 net.cpp:165] Memory required for data: 3825184512
I0819 06:49:39.047739  2123 layer_factory.hpp:76] Creating layer drop6
I0819 06:49:39.047745  2123 net.cpp:106] Creating Layer drop6
I0819 06:49:39.047749  2123 net.cpp:454] drop6 <- fc6-my
I0819 06:49:39.047754  2123 net.cpp:397] drop6 -> fc6-my (in-place)
I0819 06:49:39.047778  2123 net.cpp:150] Setting up drop6
I0819 06:49:39.047783  2123 net.cpp:157] Top shape: 32 4096 (131072)
I0819 06:49:39.047786  2123 net.cpp:165] Memory required for data: 3825708800
I0819 06:49:39.047790  2123 layer_factory.hpp:76] Creating layer fc7
I0819 06:49:39.047796  2123 net.cpp:106] Creating Layer fc7
I0819 06:49:39.047801  2123 net.cpp:454] fc7 <- fc6-my
I0819 06:49:39.047806  2123 net.cpp:411] fc7 -> fc7
I0819 06:49:39.134536  2123 net.cpp:150] Setting up fc7
I0819 06:49:39.134568  2123 net.cpp:157] Top shape: 32 4096 (131072)
I0819 06:49:39.134572  2123 net.cpp:165] Memory required for data: 3826233088
I0819 06:49:39.134580  2123 layer_factory.hpp:76] Creating layer relu7
I0819 06:49:39.134589  2123 net.cpp:106] Creating Layer relu7
I0819 06:49:39.134594  2123 net.cpp:454] relu7 <- fc7
I0819 06:49:39.134601  2123 net.cpp:397] relu7 -> fc7 (in-place)
I0819 06:49:39.134917  2123 net.cpp:150] Setting up relu7
I0819 06:49:39.134927  2123 net.cpp:157] Top shape: 32 4096 (131072)
I0819 06:49:39.134930  2123 net.cpp:165] Memory required for data: 3826757376
I0819 06:49:39.134934  2123 layer_factory.hpp:76] Creating layer drop7
I0819 06:49:39.134941  2123 net.cpp:106] Creating Layer drop7
I0819 06:49:39.134944  2123 net.cpp:454] drop7 <- fc7
I0819 06:49:39.134950  2123 net.cpp:397] drop7 -> fc7 (in-place)
I0819 06:49:39.134975  2123 net.cpp:150] Setting up drop7
I0819 06:49:39.134982  2123 net.cpp:157] Top shape: 32 4096 (131072)
I0819 06:49:39.134985  2123 net.cpp:165] Memory required for data: 3827281664
I0819 06:49:39.134989  2123 layer_factory.hpp:76] Creating layer fc8-my100
I0819 06:49:39.134995  2123 net.cpp:106] Creating Layer fc8-my100
I0819 06:49:39.134999  2123 net.cpp:454] fc8-my100 <- fc7
I0819 06:49:39.135005  2123 net.cpp:411] fc8-my100 -> fc8-my100
I0819 06:49:39.137742  2123 net.cpp:150] Setting up fc8-my100
I0819 06:49:39.137753  2123 net.cpp:157] Top shape: 32 127 (4064)
I0819 06:49:39.137756  2123 net.cpp:165] Memory required for data: 3827297920
I0819 06:49:39.137761  2123 layer_factory.hpp:76] Creating layer fc8-my100_fc8-my100_0_split
I0819 06:49:39.137768  2123 net.cpp:106] Creating Layer fc8-my100_fc8-my100_0_split
I0819 06:49:39.137771  2123 net.cpp:454] fc8-my100_fc8-my100_0_split <- fc8-my100
I0819 06:49:39.137776  2123 net.cpp:411] fc8-my100_fc8-my100_0_split -> fc8-my100_fc8-my100_0_split_0
I0819 06:49:39.137783  2123 net.cpp:411] fc8-my100_fc8-my100_0_split -> fc8-my100_fc8-my100_0_split_1
I0819 06:49:39.137812  2123 net.cpp:150] Setting up fc8-my100_fc8-my100_0_split
I0819 06:49:39.137819  2123 net.cpp:157] Top shape: 32 127 (4064)
I0819 06:49:39.137823  2123 net.cpp:157] Top shape: 32 127 (4064)
I0819 06:49:39.137826  2123 net.cpp:165] Memory required for data: 3827330432
I0819 06:49:39.137830  2123 layer_factory.hpp:76] Creating layer accuracy
I0819 06:49:39.137838  2123 net.cpp:106] Creating Layer accuracy
I0819 06:49:39.137842  2123 net.cpp:454] accuracy <- fc8-my100_fc8-my100_0_split_0
I0819 06:49:39.137858  2123 net.cpp:454] accuracy <- label_data_1_split_0
I0819 06:49:39.137864  2123 net.cpp:411] accuracy -> accuracy
…
